mnist_cnn.pt (torch, 903657 bytes, 8 tensors)

conv1.weight f4 [32, 1, 3, 3]
00000000: 6669 383e 413e a03e 3c79 bebd 4f90 b13e
00000010: b3f7 e53d 5de2 c13d bde0 95be b664 f5be
00000020: 785c 75be 0338 7dbe 59a0 433e 4de2 863d
00000030: 3d2c 933d e983 3dbe 3ca4 b63d 70eb 2f3e
00000040: e44d 953e 9d2b 2e3d e438 e5be da9d 4f3d
00000050: 596b df3d 60af 5b3c ec52 0d3e 79e2 c13e
00000060: 3e2b 1cbe d566 36bd 0a28 f13d fff8 ddbb
00000070: f465 aa3e f048 9c3e 8ba7 8dbe 95f3 a23e
00000080: f612 223e 93dc 96bd 617e b4be 9ddf 94be
00000090: 5667 713e fb14 d7bd edca 9cbe 0a1a 8b3e
000000a0: afbe b3be 930d 8ebe b73c 24be 1001 acbe
000000b0: b0e9 2e3e 07dd c9be 8bad 233d 6c1c 003e
000000c0: 9e5a 46be 0930 03be 92c0 763e 08e2 14be
000000d0: 0e06 b8bc 2286 ca3e 9b2d 1fbe 1dfa a3be
000000e0: 4ecc e9be 8ed2 303e 3bee c33e c822 65bd
000000f0: 9f91 3c3e fc9b 0ebd aee7 543e 30c4 b7bd
00000100: bbf3 e1be bf2f 31be 1060 abbe e0df 343c
00000110: 2321 e0bd c140 43be dca2 4b3e 7782 653e
00000120: 572a 10bd d898 a3be 7f0a a1bd 2b7d 163e
00000130: 7481 4ebe dad2 c23e baee edbd 430d f33e
00000140: 2ad4 59be 7f83 ca3e af88 383e 3b12 02be
00000150: 854e 31be 42a8 713c 1353 983e 2a9e 88be
00000160: fe0e 1bbe 5682 46be 728e eabc d515 87be
00000170: b197 6bbd 9a1f c93c 75c5 833d cf27 b83e
00000180: 2701 f13d 08ad 793e 7579 a23e dc0f b63e
00000190: e6ee 75be eb5b 5ebe f665 e6be 2144 8bbe
000001a0: cb2f 75be f467 d0bd 3135 dc3e e127 973e
000001b0: a983 83be 6649 b0be 8f43 853e c551 383d
000001c0: 3950 81be 6c36 893e 5f08 57be 831c 95be
000001d0: 6f7e b3bd 9c27 3f3e e2bd a539 6f6b ba3e
000001e0: 1cd7 bcbd b78d d13c cd2b 8b3c 0b46 a4be
000001f0: 85ed 88bc 9589 883e a582 eebb 9ca7 bdbd
00000200: df4b c1be 1dd7 703e 698f 5d3e 038d c1be
00000210: ecfb 943d d160 183e 21f7 bcbe c25e 283e
00000220: fc4d d0bc 26ca a83e 6182 c3bd a4f2 afbd
00000230: 7e00 a4bd c1b3 a63e 5563 963e f0cb 953e
00000240: 196d 9bbe 9228 a1be 025f 993d 13ff 90be
00000250: 399c 73be 7874 b93e 559f 16bd 7efe b1be
00000260: 45b5 b03e 7e5c 3fbe 32ba 583e 6913 b93e
00000270: 78ac 313e 4b7c 0abe 7fe3 ae3d 0675 70be
00000280: 57b6 46be 0a76 ce3c 8390 a03e 7f7b 833d
00000290: bd54 8e3e bb1f 573e b86a 71be b15e 503e
000002a0: 99af 33be 9b41 d9be 1f02 52be 74e2 783e
000002b0: 2bef 0a3d b761 c13d 4398 9abd 2360 8d3e
000002c0: 4918 713e 21a2 d2be 8366 b2be 14c7 bcbe
000002d0: 5038 383e 4905 043d 4511 b03e 9c4d 273e
000002e0: b37c 91be b086 0cbd 5b54 8c3e fd31 6cbe
000002f0: 9915 e13d 2ff0 e8be 31f9 a0bd 3187 0d3e
00000300: 6cf1 f23b 3fa4 29be 6fe9 af3e 08f9 2e3e
00000310: 6279 42bc 340e c4bc 735e bf3c ba87 cb3e
00000320: 2072 5abd cb79 a4bd 68d8 953d 943f 3e3e
00000330: ce36 d8be 2ae6 48bd 17f9 573d 3e6d a7be
00000340: d51d 553d 3bee 08be 8f3b 8dbe 34aa 4fbe
00000350: 795c bebc c091 61bd a0ad 8ebe e7e2 9abe
00000360: a3b3 a6bc b78f 3a3e e13a b6bc 1354 b03e
00000370: 4fca 85ba c51d 0c3e 195d 8abe d6fd b8be
00000380: ad2f e53d 005b 793e 0dca 643c 99e5 08be
00000390: 01d7 bdbe bf4f 1bbe d352 34be 8251 20be
000003a0: 70ee d5be 1472 1cbe f0fa d1bd f563 db3d
000003b0: 7f3c 863e ad67 f13d 8fae 5e3d 2bbf c33e
000003c0: e547 0ebd ba14 233e a8ad 893d 3404 863e
000003d0: 202b 08be e8a6 1fbc 462e 683e 50b5 f03d
000003e0: c0c2 643e c66a 213e 1159 e13d eb9b 693d
000003f0: 38fe 26be ee0c 803e 4164 c83e 52b0 a4be
0.18008956 0.31297496 -0.09300467 0.3468041 0.112288855 0.094670035 -0.29273024 -0.479284
-0.23961055 -0.24728398 0.19104137 0.06586132 0.07186172 -0.18507351 0.08918044 0.17179656
0.29160988 0.04252206 -0.44769967 0.05068765 0.10909147 0.013408512 0.13801163 0.37868097
-0.1525087 -0.044531662 0.11775215 -0.0067740674 0.3328091 0.30524397 -0.27666888 0.31826463
0.15827546 -0.0736629 -0.3525267 -0.29076853 0.23574576 -0.105020486 -0.3062357 0.27168304
-0.35106418 -0.2774473 -0.16038786 -0.3359456 0.17081332 -0.39426443 0.039960425 0.12510842
-0.19370505 -0.12811293 0.24096897 -0.14539349 -0.022463825 0.3955546 -0.15544741 -0.3202676
-0.45663685 0.1726782 0.38267693 -0.055941373 0.18414925 -0.034816727 0.20791504 -0.08972967
-0.44131264 -0.1730337 -0.33471727 0.011039704 -0.1094382 -0.1906767 0.19886345 0.2241305
-0.03519663 -0.31952548 -0.0786333 0.14696185 -0.2016657 0.38051492 -0.11617799 0.47471055
-0.2127234 0.3955345 0.1802089 -0.12702267 -0.17315109 0.014749588 0.2975088 -0.2668317
-0.15142438 -0.19385657 -0.028632376 -0.26383844 -0.05751771 0.024551202 0.06434146 0.35967872
0.11767798 0.24382412 0.3173329 0.35558975 -0.24016914 -0.21714751 -0.44999665 -0.27200416
-0.23944013 -0.101760775 0.43009332 0.29522613 -0.25686386 -0.34431 0.26028106 0.044999857
-0.25256518 0.26799333 -0.20999287 -0.29123315 -0.0876435 0.18667454 0.00031612726 0.3641009
-0.09220716 0.02558027 0.01698866 -0.3208469 -0.01671482 0.26667467 -0.0072787576 -0.092604846
-0.37753198 0.23519559 0.21636738 -0.37802896 0.07274613 0.14880683 -0.36907294 0.16442397
-0.02542781 0.32966727 -0.09546352 -0.08591202 -0.080079064 0.32559016 0.2937266 0.29257154
-0.30356672 -0.31476265 0.074888244 -0.28319606 -0.23790063 0.3622167 -0.036773045 -0.34764475
0.34513298 -0.18687627 0.21164778 0.3614762 0.17350948 -0.13523977 0.08539485 -0.23482141
-0.19405495 0.02520277 0.31360254 0.064200394 0.27799025 0.21008198 -0.23575866 0.20348622
-0.17547454 -0.42432866 -0.20508622 0.24305135 0.033919495 0.09442466 -0.07548573 0.2761241
0.2354442 -0.4113932 -0.34843835 -0.36870635 0.17990232 0.032231603 0.34388176 0.163382
-0.2841545 -0.034308136 0.27408108 -0.23065944 0.109904476 -0.45495746 -0.078600295 0.13821103
0.0074140336 -0.16566561 0.34357783 0.17087185 -0.01186976 -0.023932554 0.023360467 0.3975199
-0.053331494 -0.08031043 0.07316667 0.1857894 -0.42229313 -0.049047627 0.052727785 -0.32700533
0.052030403 -0.13372128 -0.27584502 -0.20279771 -0.023237454 -0.05507064 -0.2786684 -0.30251238
-0.02034933 0.18218885 -0.022244873 0.34439144 -0.0010207387 0.13683231 -0.27024153 -0.3613116
0.11190734 0.2435112 0.013964188 -0.13368835 -0.37078097 -0.1516714 -0.1760972 -0.15656093
-0.41783476 -0.15277892 -0.10252941 0.10712425 0.2621803 0.11787353 0.05436569 0.38231787
-0.034736533 0.15925875 0.067225754 0.26175082 -0.13297701 -0.009744383 0.22673902 0.117533326
0.22339916 0.15763387 0.11003316 0.05703346 -0.16307914 0.25009865 0.39138988 -0.32165772

conv1.bias f4 [32]
00000000: d74f 933e d78b 5d3e ac55 803b f507 2b3e
00000010: bf64 653e 1c79 1c3d 6a1b 31be 6288 ab3e
00000020: 6847 40be 7ff6 003d ae2f 9c3e 8c03 40be
00000030: 29d3 6e3e d44c 3c3e 0e8e 4a3e 52a3 75be
00000040: 91f6 793e 795f fdbd d0d8 c73c 2598 a43e
00000050: 531d c8bb 566b 213e 707c 11be ef7a 773e
00000060: c7cd 10be 1435 38be 9de3 083e e4ca 843e
00000070: 2de0 2b3e b3aa 4b3e d442 abbd 3e6d 69be
0.2877185 0.21635376 0.003916463 0.16702254 0.22401713 0.038201436 -0.17295614 0.3350249
-0.1877724 0.031485077 0.30505127 -0.18751353 0.23322739 0.18388683 0.19780752 -0.23988083
0.24410464 -0.123717256 0.024395376 0.32147327 -0.0061070113 0.15763602 -0.14207625 0.24167989
-0.14140998 -0.17988998 0.13368078 0.25936043 0.16784735 0.19889335 -0.08362356 -0.22795579

conv2.weight f4 [64, 32, 3, 3]
00000000: 6638 453d f9db ef3c f742 723d cfac 9ebd
00000010: 268d 12bd fcc8 cabd 0f24 023d 7ec8 a43c
00000020: e7cd 72bd ab20 cfbc b996 9bbd 066c b5bd
00000030: 0deb 8c3d e89f 233d 9d5f debb 4fbb a1bc
00000040: ea09 283c f745 a5bc 3158 eabd a5ac e3bd
00000050: bf39 a6bc 8084 c2bd 7e0f 0fbd 5930 d7bd
00000060: 763c 5b3d 2f18 eb3c 7f96 0abd af04 3e3b
00000070: ed0d 6c3d f330 e23d 4090 aabd ea12 58bc
00000080: 498d a3bc 977a 0b3e 9624 733c 05e4 68bd
00000090: 3d3d ccbb 02e5 5dbb b082 8cbc 3edd bdbd
000000a0: 7178 813a d1d4 91bd 85d5 2e3c fadb 483c
000000b0: 5954 9dbd e0cd f0bd 4162 16be 3f83 adbd
000000c0: aaa3 e8bd b8fb 62bd 9c5b 34be 30e8 e0bb
000000d0: 1419 9d3d d923 bebd e2da 82bc 89b1 59bd
000000e0: 0705 2abe ddc7 4b3e baaa 1f3e 30f3 9e3b
000000f0: 4dbf 023e 6227 0b3e f07b 623e 6844 09bc
00000100: 17d3 c0bc d062 7f3b becc 1c3c de03 e4bc
00000110: 9569 cabd b52e 7abd de01 4dbd 113e 20bd
00000120: 35e5 79bd 2a65 21be 2cb7 27be ab69 d43d
00000130: 6ab3 8cbb 5dae c1bd dc6d 023d d3fe 33bd
00000140: b64a bbbd 4c03 6c3d 2d25 983d a764 233d
00000150: 4dfb 213c f8ac 8ebd 64c7 8fbc 51eb c43d
00000160: cc1c e23d 2100 89bd 2b66 ffbc 22b9 ffbc
00000170: 06ac e9bd f5aa cc3c 453f a9bc 7f54 d9bd
00000180: 41e9 a33d c651 803d 0667 193d a68b d03d
00000190: 05b1 4f3c c42d b1bd 546e 673d b907 a93c
000001a0: 40a8 ffbd cd89 61bd 5c20 313d 9dbc 32bd
000001b0: 5101 37bd 2544 443c be3b a53d 4433 a1bd
000001c0: f18f 22bc 0d2d 9d3b ca57 3c3d 30d3 8c3c
000001d0: 499b 673c 0175 b0bd 5f65 a5bd 65c2 c0bb
000001e0: caad 7d3c d4c5 bbbd 8cd1 70bd 6d0a 063e
000001f0: 5670 d83d 9f07 05bd d4b4 03bd 0f66 e3bb
00000200: 3aa2 10bd a1a4 0dbd 4272 1c3d 460b 373d
00000210: 4f03 8e3d bb9a 953d 7bc1 c53d 6012 9ebd
00000220: b259 62bd 3bfd f5bd 6ca8 be3d aeb7 e0bc
00000230: 1c4e abbb 40ae 683d 573b 7a3c 2a0d 263d
00000240: bcf2 9cbc c03f 343c 4061 88bc 19b6 4fbd
00000250: 4300 103d 223c 1cbd d62d 8b3c 550e 423d
00000260: 67b9 f4bc 08ed 493c 7aa8 653c c2b6 1b3b
00000270: 1feb 05be 2b83 b5bc 7afa e9bd ef52 893d
00000280: a1af 443d 4b81 1abe 0b61 fc3c 60b6 3d3d
00000290: 0918 363d dd86 b6bd 96bb 20be 97fb bfbd
000002a0: dd66 083e 494b e33b afa8 d7bd d33b 113c
000002b0: 6b86 cf3d c8e0 303d 8a9f cabc 2059 863c
000002c0: 45c0 d03c a143 8f3d 03fc 86bc f25f 17bd
000002d0: 89d6 64bd d413 8ebd 73e0 abbc 5ed1 c4bc
000002e0: 1af6 853c 7bbe efbc e44b d13d b4f7 463d
000002f0: 710c 38bd 7af6 34bd 78a4 98bd b2ae 063d
00000300: 66fd 11bd a758 033d 7aa6 70ba f0de 4d3d
00000310: dda4 3cbb 612b b1bd 8e02 04be 16c2 a43d
00000320: 63ee ba3d 08cb e3bc 1e35 723d 1d4d dcbc
00000330: fcee 143e 06f4 1f3e 4a70 e6ba 373a 423c
00000340: 4d3b 6c3d 0e9e 7fbc 3cde a23c 117c ea3c
00000350: 0d0b 033d 9545 8dbd bc13 39bd 9c46 2e3d
00000360: 7ebd 9dbd 8b69 c1bc ce0f b03d 1290 413d
00000370: b871 843d b005 7dbd ca7c 2b3e 1514 cf3d
00000380: e876 92bd 561d ad3d af85 bebc 94f6 12bd
00000390: 6b4d 55bd 057c 1ebd 8d63 9b3d dd7a 7aba
000003a0: d05a 6ebd 2c70 d9bd 59c0 d2bc d1b9 babd
000003b0: 36c9 3dbd b6b1 0e3d 9dda bbbd e5a4 0ebe
000003c0: d99a 203c 005e f93c 30d6 7ebd 1567 aabd
000003d0: 029a a6bd 8fb7 10bd 241c ccba 4f17 093d
000003e0: 83fc 90bd 90ef be3d f6b7 d73c 678a 6d3d
000003f0: 1d7a 9a3d 145d 513d 115d f63d 45a9 edbd
0.04814949 0.029279696 0.059145894 -0.077478044 -0.03577914 -0.09901616 0.03177267 0.020115133
-0.059278395 -0.025284132 -0.075971074 -0.088584945 0.0688077 0.03994742 -0.0067863003 -0.019742636
0.01025627 -0.020174963 -0.114426024 -0.11116914 -0.020291207 -0.094979286 -0.034926884 -0.105072685
0.053524457 0.028698055 -0.03383493 0.002899449 0.05763047 0.110444926 -0.08328295 -0.013188103
-0.019964831 0.13620983 0.014840266 -0.05685808 -0.006232886 -0.0033858423 -0.01715216 -0.09270714
0.0009877813 -0.0712067 0.010671024 0.012259478 -0.07682104 -0.117580175 -0.14685918 -0.08472299
-0.113593414 -0.05541584 -0.17613071 -0.0068636164 0.07670799 -0.09284181 -0.015973512 -0.053147826
-0.1660348 0.1990046 0.15592471 0.0048507676 0.12768288 0.13589242 0.22117591 -0.008378126
-0.023538155 0.003896881 0.009570299 -0.027833875 -0.098834194 -0.0610797 -0.05005061 -0.03912169
-0.061009604 -0.15761247 -0.16378468 0.10371717 -0.0042938488 -0.09457085 0.03184305 -0.04394419
-0.09145109 0.05762033 0.07428966 0.03989091 0.009886575 -0.06966585 -0.017551132 0.096151955
0.11040649 -0.06689478 -0.031176647 -0.031216208 -0.11409764 0.024983862 -0.020660052 -0.106118195
0.08003474 0.06265597 0.037451766 0.10182886 0.012676482 -0.08651307 0.0565017 0.020633565
-0.12483263 -0.055063058 0.04324375 -0.043636907 -0.04467899 0.011979138 0.080680355 -0.07871106
-0.009922014 0.0047966302 0.04598216 0.017190546 0.014136144 -0.08616067 -0.080759756 -0.0058825486
0.015483329 -0.09168592 -0.05879359 0.13089915 0.105683014 -0.03247797 -0.032154873 -0.0069396566
-0.03531096 -0.03458083 0.038194902 0.044688486 0.06934225 0.07304903 0.09656044 -0.077183485
-0.05526132 -0.120111905 0.09309468 -0.027431335 -0.005227817 0.056806803 0.015272937 0.040539898
-0.019158714 0.011001527 -0.016647935 -0.05071077 0.0351565 -0.038143285 0.01698963 0.04737695
-0.029873563 0.012324579 0.014017219 0.0023760055 -0.13077973 -0.022157272 -0.11424728 0.067052715
0.048019055 -0.15088384 0.030807992 0.046316504 0.044456515 -0.08912442 -0.15696558 -0.09374159
0.13320489 0.006936465 -0.10530221 0.008864361 0.1013306 0.043183118 -0.024734277 0.01639992
0.025482306 0.06995321 -0.01647759 -0.036956735 -0.05586866 -0.06937376 -0.02098105 -0.024025615
0.016352702 -0.029265633 0.10219553 0.04857607 -0.04493374 -0.04418037 -0.07453245 0.032881446
-0.03564205 0.032066967 -0.00091800804 0.050261438 -0.002878479 -0.08650852 -0.128916 0.080448315
0.091275 -0.027806774 0.059132688 -0.02689224 0.1454429 0.15620431 -0.0017581072 0.0118547
0.05767374 -0.015601648 0.01988136 0.028623613 0.03199296 -0.06898037 -0.045184836 0.042547807
-0.077021584 -0.023609897 0.085967645 0.047256537 0.06467003 -0.061773002 0.16746822 0.10111252
-0.07151586 0.08452861 -0.023257105 -0.035879686 -0.052075785 -0.038692493 0.07587347 -0.0009555051
-0.058192074 -0.10617098 -0.025726484 -0.09117473 -0.046334468 0.034837447 -0.091725565 -0.1393009
0.009802544 0.03044033 -0.062215984 -0.083204426 -0.081348434 -0.035331305 -0.0015572351 0.033469494
-0.07079413 0.09323037 0.026332837 0.05799332 0.075428225 0.051114157 0.1202947 -0.11604551

conv2.bias f4 [64]
00000000: 537d 1dbd 027e 10bd 70a0 acbc 266c 3dbd
00000010: bdad 62bc 10df 673d a86b 10bd e169 493d
00000020: bcfb a83c 0d97 d4bc 142c 96bc 282d 8d3c
00000030: 3a75 46bd a71e 11bd ca6f dd3b 78e5 1d3b
00000040: 65a0 4b3d 9f0a e63c 98df 37bd cb4d db39
00000050: 2424 1ebd e592 f3bc 6f7b 1a3d fcd3 8bbd
00000060: 8cb5 dd38 6271 38bd 9396 2b3d 2e71 3fbd
00000070: d0af 7cbd ebde 0fbc 5d47 7dbd 36d8 263d
00000080: 3148 0abd 2952 6d3c bb32 58bd 40df 113b
00000090: b759 45bb e980 37bd 69c3 8a3c 2c89 22bd
000000a0: 0275 df3c 2a4b a4bd 88dc e039 d146 6ebd
000000b0: 7203 983b b03a 0d3d e18b a9bc ee2d 1dbd
000000c0: 9e17 233d 90a4 40bd 3025 af3b ce5f 1fbd
000000d0: ef72 4fbd 860b 433d 1964 cfbc 6275 5bbd
000000e0: e0d8 8ebc d709 adbd c62a 9bbb d67f 41bd
000000f0: 575e 61bd 866f debc a280 1b3d 6b63 90bd
-0.038449597 -0.03527642 -0.021072596 -0.046245717 -0.013835368 0.056609213 -0.03525892 0.04917324
0.020627849 -0.025950933 -0.018331565 0.017233446 -0.04845164 -0.035429623 0.006757711 0.0024093073
0.04971351 0.028081236 -0.04489097 0.00041828895 -0.038608685 -0.02973313 0.03771537 -0.06827542
0.00010571917 -0.045030005 0.041891646 -0.046738796 -0.061691105 -0.008781175 -0.061835635 0.04073354
-0.033760253 0.014484921 -0.052782755 0.0022258312 -0.0030113289 -0.044800673 0.016938882 -0.0396816
0.027277473 -0.08022149 0.00042888918 -0.058173005 0.0046390826 0.034479797 -0.020696582 -0.03837388
0.039817445 -0.04703194 0.0053450093 -0.038909726 -0.05064672 0.04761841 -0.025316285 -0.05357874
-0.017437398 -0.084491424 -0.0047353236 -0.047241054 -0.05502161 -0.027152788 0.03796447 -0.070502125

fc1.weight f4 [128, 1600]
00000000: e273 f23c 84c6 95bc adf8 853c bc8d 273b
00000010: c58a 8d3c c99b 2e3c ee94 f13c 23b5 e8bc
00000020: 09c3 7ebc 6d7a 31bc b526 3fbc 348b 053c
00000030: aa1c b0bc d084 61bc f1b6 753c c2e4 b43c
00000040: 6f3d 12bb 5c3e fcbc 86bb c8ba 207f fe3b
00000050: b340 02bc 0d90 893c 4177 4c3c 63f9 ec3c
00000060: 0c99 bcbc 47a9 193b 1ca5 8dbc 7952 a6b9
00000070: caf2 0eba a8c0 2bbc d69a c33b cebd c0bc
00000080: 39e8 c53b 66d1 b9ba a5d0 b3bb 0da1 20bc
00000090: 3fd6 92bc 80a4 c0bc ab82 d8bc a42b 853b
000000a0: 249c cdbc 6116 693c 887d 573c 0cef 9fbc
000000b0: d119 ecbc 0cb2 1cbc c623 60bc f938 e7bc
000000c0: 0b7a 4eba 5fed 9cbc c303 f9bb 75f9 343b
000000d0: 6d5c 24bc 0934 723c a4e0 b1bc 93b7 fabc
000000e0: fa3e 12bc 1907 d93b b23a cbbb c015 9d3c
000000f0: 7865 8c3c 4889 3fbc c985 6e3c 9682 e7bc
00000100: 0aab cd3c d12e 01bc 2cb2 943c 2459 8fbb
00000110: 14c6 86bc 7a91 6d3c 02cf 82bb 7a94 a1bb
00000120: 170c 5d38 ec85 f637 b7bd 71bc bcf3 6c3c
00000130: 2074 763c 0feb ecbc a804 b9bc c393 313c
00000140: 0f1c 473c 9a42 c5bc 95e2 37bc 999f e5bb
00000150: 3727 eb3a 3f18 3c3c 4042 90bb 9fbf 373c
00000160: aa30 29b9 d136 eb3b e4ca 13bc 4324 eebc
00000170: 21b1 39ba f9ee 98bb bf16 a6bb 7443 8e3b
00000180: cdcb ea3b a7b0 26bb 0b1c 9b3c 0ad0 36bc
00000190: 65e0 863c 38e8 bcbc a00d cebb 6ac5 653b
000001a0: 26bc 59ba adeb a4bb f81c 1f3b 3397 8cbb
000001b0: d1ac 733b 84d4 8c3c 93ac 3dbc bd9d b4bc
000001c0: a6da a9bb 4ad5 c0bc c507 a2bc 0985 bebc
000001d0: 575e 303c d50d 0fbc 21c3 65bc c43c 75bb
000001e0: 8c12 6639 5605 f03b 11c9 c03c 23b5 74bb
000001f0: f0e5 f4bc fd1c ccbc 3f84 96bc 46e9 56ba
00000200: 93a0 f7bb e7dc 903c 3a13 3a3c 8634 a6bb
00000210: 2d0d 23bc bafe 4e3c e60f c83c 9859 fb3c
00000220: ec12 7d3c d90b 80bc 2709 0b3b 02f5 f33c
00000230: 4bc3 c93b 175f 2ebc ad68 9bbb 183b 803c
00000240: d993 da3c 09a5 63bc fb84 cdbc e220 8b3c
00000250: 37a2 1e3c aaea 0f3c 93e0 82ba bfe6 4abc
00000260: 3f1d fbbb 4a37 9a3c 36b0 a63c 3800 b83c
00000270: 4a2d 30bc 85a8 d9bc 23b0 9c3b 9be3 18bc
00000280: 368f dcba 9556 a0ba a574 863c 319e 30bb
00000290: bc72 383c f69b 39bc ab6e 553a 5116 803c
000002a0: e867 46bc a37d d7bc e2f8 09bc 3d5a c8bc
000002b0: a0f3 c7bc c227 bb3b 75d4 babc 2a7c d6ba
000002c0: eea0 783c 6663 ba3b 8069 8f3b 4e9f ac3b
000002d0: c509 b3bc 9ed3 e9bc ba97 ec3c 7c39 9b3b
000002e0: de8d 4cbc 0b00 533c a016 a13a 95ef 0dbb
000002f0: 7c65 bbbc 5446 87bc 2a28 903c c203 533c
00000300: 3146 9cbc 4b22 bcbc 0415 863c 4b7d 46bc
00000310: 5f19 423c 1e58 873c 1a7c 803c 0fa4 cd3b
00000320: fa45 29bc a9b2 2d3c caa7 8dbc 47f3 4b3c
00000330: bf7d dcbc d044 8f3c 004f 973c 8d66 8ebb
00000340: ea21 4bbc aff4 183c b788 383c a4bf 0bbb
00000350: 809e fc3c 8b68 043c 05bd f23b 0b86 ae3a
00000360: 7d37 b33c 3020 923c ab89 83bc 42cb 773c
00000370: 38ec c03b 77c4 2abc ad6e 97bc a5ce fbbc
00000380: bcf8 8f3c e63f e6bc b6ad 8a3c 20d2 e5bc
00000390: b267 2bbc 91d4 8fbb c27f 0d3c f54b cabc
000003a0: ef13 7bbc 3f49 c0bb 3a4c c63b 5ff6 623a
000003b0: eb61 ddbb 6041 e73b df4a f2ba 3659 30bb
000003c0: d8e5 713b c46d e83b c4fc 1dbc 9e00 8ebc
000003d0: abad 033c a3e8 b3bc 1ae1 893c 9985 c9bc
000003e0: a0bc 703b bc0b edbc 1aeb c4bc 5a3a bfbc
000003f0: 82ba 5b3c 1f56 1dbc 898c ddbc 6e73 36bc
0.029596273 -0.018283136 0.01635393 0.0025566658 0.017278085 0.010657259 0.02948996 -0.028406685
-0.01554943 -0.010832411 -0.011666943 0.008150864 -0.021498043 -0.013764575 0.01499723 0.022081736
-0.002231445 -0.030791454 -0.0015314675 0.0077666193 -0.007949996 0.016792322 0.012479604 0.02892751
-0.023022197 0.0023446844 -0.017290644 -0.00031723434 -0.00054530485 -0.010482945 0.0059693856 -0.023528006
0.006039646 -0.0014176785 -0.005487519 -0.0098040225 -0.017924426 -0.02351594 -0.026429495 0.0040640403
-0.025098868 0.014226527 0.013152488 -0.019523166 -0.028820904 -0.009563934 -0.013680404 -0.028225409
-0.0007876462 -0.019156156 -0.0075993254 0.0027614508 -0.010031802 0.014782914 -0.021713562 -0.030605113
-0.008926148 0.0066231606 -0.0062020654 0.01917541 0.017138228 -0.011690445 0.014558264 -0.02826051
0.025105972 -0.007884697 0.018151365 -0.00437464 -0.016451873 0.014500016 -0.0039919624 -0.00493103
5.2701766e-05 2.9387847e-05 -0.014754704 0.014462408 0.015042335 -0.028920678 -0.022585228 0.010838452
0.012152686 -0.02407961 -0.011223455 -0.007007551 0.0017940764 0.01148039 -0.004402429 0.01121512
-0.00016135225 0.0071781655 -0.009020541 -0.029070025 -0.0007083584 -0.0046671596 -0.0050686295 0.004341537
0.007165408 -0.0025434883 0.01893427 -0.011157999 0.016464422 -0.02305995 -0.0062882453 0.0035060295
-0.00083059294 -0.0050329776 0.0024278741 -0.0042904853 0.0037181864 0.01719118 -0.011576789 -0.022047872
-0.0051835356 -0.023539204 -0.019779095 -0.023256795 0.01076468 -0.008731325 -0.014023573 -0.0037420252
0.00021941419 0.007324855 0.023533376 -0.0037339411 -0.029894799 -0.024916166 -0.018373607 -0.00081982126
-0.0075569837 0.01768346 0.011357123 -0.0050721793 -0.009951872 0.012633974 0.024421643 0.03068237
0.015446406 -0.01563065 0.0021215172 0.029779915 0.006157314 -0.010642788 -0.004742703 0.015653178
0.026681827 -0.013894328 -0.025087824 0.016983453 0.00968223 0.008783976 -0.0009985141 -0.012384116
-0.0076633985 0.018825192 0.020347696 0.022461042 -0.010752985 -0.026569614 0.0047817393 -0.009331609
-0.0016827348 -0.0012232835 0.016413042 -0.0026949758 0.011257824 -0.011328688 0.0008141796 0.015635641
-0.012109734 -0.026305025 -0.008421155 -0.024457091 -0.024408162 0.0057115266 -0.022806386 -0.0016363908
0.015175087 0.0056881187 0.0043765903 0.005268014 -0.021855244 -0.02854329 0.028880943 0.0047370773
-0.012484996 0.012878428 0.0012290068 -0.0021657695 -0.02287554 -0.016513027 0.017597277 0.012879314
-0.019076439 -0.02296557 0.016367443 -0.012114833 0.011846869 0.01652151 0.015684176 0.006275661
-0.010331625 0.010601678 -0.017291922 0.012448139 -0.02691543 0.017488867 0.018470287 -0.004345721
-0.012398222 0.009335681 0.011263064 -0.0021323944 0.030837297 0.008081566 0.007407787 0.0013315094
0.021877045 0.017837614 -0.016056856 0.015124144 0.0058875345 -0.010422817 -0.018485392 -0.030738184
0.01757466 -0.028106641 0.016928535 -0.028054297 -0.010461735 -0.0043893536 0.008636417 -0.024694422
-0.015324577 -0.0058681066 0.0060515674 0.0008657928 -0.0067560575 0.007057354 -0.0018485448 -0.0026908643
0.003691068 0.007093163 -0.009642784 -0.017334279 0.008037011 -0.021961516 0.01683097 -0.024599837
0.0036733523 -0.02893626 -0.024037886 -0.023343254 0.013411166 -0.009603052 -0.027044551 -0.011135919

fc1.bias f4 [128]
00000000: db44 cabc aa98 b7bc 8529 39bc 3e6a ed3c
00000010: 2a89 a13c a6bd f53b d1a6 85bb 3fab bd3b
00000020: 983e 5ebc f4db 973c d626 c73b e4fa 8cbb
00000030: f078 a7bc 8847 f2ba a13f 433a e868 0dbc
00000040: b80b 74bc f0d6 b5bc 2e02 10bc fed3 0d3c
00000050: 6810 edbc 1afe 8c3c c6e9 433c 3dc5 10bc
00000060: 7d96 473c 79b8 8f3c c58e 6ebb 8a76 26bc
00000070: 5c14 833b dc1a 02bb 8b58 b03b 19cb eb3c
00000080: 8d99 8a3c bab8 4b3b 9a5d 4e3c 7d59 3bbc
00000090: 24fb 18bc 6de7 1bbc d333 7d3b d703 c03c
000000a0: e1ba 0f3d 9eab 133b 24d3 6dbc a621 c13c
000000b0: 658b f1bc e324 493c 6d95 df3c 807b 77bb
000000c0: 1d9d 08bc e6c5 58bc 4e1a 1b3c 2f97 6fbc
000000d0: 8815 9b3c b84b d4bc de67 1ebc 53fa b43b
000000e0: 24ed 043c 4d43 cdbc a3ad 313c 716b 683c
000000f0: 70c8 a23c 3af6 1f3a f2fd 26bb 4a74 863c
00000100: 2ace c2bc fe06 693c cc2e d93c d951 4fba
00000110: a09a 843c 0b5a d4bc 9766 903c 91ea b53b
00000120: 385d 70bc 269d 9c3c d770 833a ef84 2ebc
00000130: d502 8a3c bd5b b6bc 29d9 05bb b49b 3abc
00000140: 1824 ebbc 278b 6d3b cfd5 67bc 0347 b63c
00000150: 5557 2bbd c658 b43c 0803 bebc c365 e7bc
00000160: ae2d 0e3c a6b7 2ebd f5b7 923a e846 893c
00000170: e639 ff3c 4bc2 a5bc ffe4 073d df2a a9bc
00000180: c9a9 25bc 1d9a 1d3c 984a cc3b 2653 a03c
00000190: 1569 b7bb b112 8dbc 8fb1 523c 07aa 51bc
000001a0: e935 e8bc f45d 14bd 147b c3bc 6089 97bb
000001b0: 6dfa 5e3a bc77 f13b 3275 833c 5187 813b
000001c0: 8462 5bbc 5574 803c d2b7 13bc c6a9 233c
000001d0: ac16 a2bc 2ad1 703c f77b e4bc 95d0 e9bc
000001e0: 4bb9 183d 4e64 c2bc 6e0c 61bc 23db 8ebc
000001f0: 8a9a 1fbc acb2 293c d2bf a2bb 85e1 0fbb
-0.024691036 -0.022411663 -0.011301403 0.028981324 0.019718725 0.0074994145 -0.004078724 0.0057882364
-0.013564728 0.018537499 0.0060776277 -0.0043023694 -0.02044341 -0.0018484453 0.0007448141 -0.008630969
-0.014895372 -0.022197217 -0.008789582 0.0086565 -0.028938487 0.017211009 0.011957591 -0.008836088
0.012181875 0.017544018 -0.0036401015 -0.010160098 0.0040002298 -0.0019852435 0.005381649 0.028783368
0.016918922 0.0031085447 0.012595559 -0.01143491 -0.00933722 -0.009515625 0.0038635626 0.023439331
0.03509033 0.0022532712 -0.014515672 0.023575615 -0.029485414 0.012276861 0.027292931 -0.003776282
-0.00833824 -0.013230776 0.009466721 -0.014623447 0.018931165 -0.025915012 -0.009668319 0.005523005
0.008113179 -0.025056506 0.010844621 0.014185772 0.019870967 0.0006102059 -0.0025480953 0.016412873
-0.023779947 0.0142228585 0.026511572 -0.00079086196 0.016187012 -0.025921842 0.017627044 0.005551644
-0.014670663 0.019117903 0.0010028136 -0.010651811 0.016847054 -0.022260541 -0.0020423627 -0.011389662
-0.028703734 0.0036246271 -0.014150097 0.022250658 -0.041831333 0.022014987 -0.023194805 -0.028246766
0.008677883 -0.04265561 0.001119374 0.016757444 0.031155538 -0.020234248 0.033177372 -0.020650325
-0.010111281 0.009619263 0.006234478 0.019570898 -0.0055972436 -0.017220827 0.012859716 -0.012796885
-0.028346019 -0.036222413 -0.0238624 -0.0046245307 0.0008505944 0.00736901 0.016047094 0.0039528986
-0.013390187 0.015680471 -0.009015994 0.009989208 -0.019786201 0.014698306 -0.027891142 -0.028541842
0.037286084 -0.02372947 -0.013735874 -0.017438477 -0.009741435 0.01035754 -0.0049667144 -0.0021954488

fc2.weight f4 [10, 128]
00000000: a465 b8bd 02da 5fbd 2bf5 61bd f7c1 91bd
00000010: b3c7 a6bd 4e44 a7bd 8459 5dbd 90de 423d
00000020: 9739 733d ad61 ed3c d547 573d 0216 05bd
00000030: 6aad 11be 769d c5bc f026 0c3d 424b 50bd
00000040: 7498 363d 298a 92bc 5a56 aebd 878f c73d
00000050: 46e5 78bb 9205 c4bc 96d9 e0bd 0be9 edbc
00000060: a158 d03d 6123 403d 00e1 99bd 6286 cebc
00000070: ae85 a93d bb7d dbbd b918 10be 83d6 3dbd
00000080: 6d1d 273b 4d21 a8bd 6e02 693d cc6c 17be
00000090: c091 783d 5ccd c9bd 49c9 4b3d 0657 8d3d
000000a0: 0da6 c0bd 0f27 8a3d 4864 893d bec7 3cbc
000000b0: ed8b 3a3c 2685 a53d 8ba7 00be 8a8e 55bd
000000c0: b7df a0bc 3e7a 35bc 9dfc 10bc 71ec 6abd
000000d0: 1ae4 433c 0efe b5bd dc04 3cbd 530b 3bbd
000000e0: f3ff aa3b 28b4 49bd 7aad 74bb 1310 373d
000000f0: 06ca f7bb 2d70 a1bd ace9 b2bc 23ab c53c
00000100: 0719 ebbd 28ac 703d aa7d 9c3d 8951 c0bd
00000110: bcd9 aa3d 3526 573b 959e 53bc a137 05be
00000120: 5fd7 fcbd e41b 0bbd 774a 7b3d d8c0 793d
00000130: 0ad7 953d e9e8 4c3d 15d2 b8bd 0d48 a43c
00000140: 450f 093d 8952 bb3d b33c b5bd e6e7 cf3c
00000150: 728a e63b e96d 4a3d 4dd6 76bd ac18 9bbd
00000160: a121 b73c 7716 123d 8b88 e4bd 07d4 e8bd
00000170: 1294 943d 831e 82bd dff2 ffbd 65b1 d03c
00000180: 2dbd efbc bd07 be3d f36a fa3d 09d1 1ebe
00000190: fd34 43bd bda7 1b3c 70e6 883d 89e9 b83d
000001a0: bb19 d33c d062 d9bd 9348 2ebc 9d23 e33c
000001b0: d8bd b03d 12b0 153d 0892 a93d 86d4 863d
000001c0: a496 8a3d 3b67 40bd 48b2 c53d 638d 9d3d
000001d0: 2463 92bd 8248 00be 1a84 1a3b 5abd 90bd
000001e0: 47eb 1abe ea1b 363d 8252 843b 11d5 f8bc
000001f0: b971 263d 8868 833d 604b 7ebd 5e9b dfbb
00000200: e43e 4e3c 7d31 a6bc c2c5 02bd b552 55bc
00000210: b300 d33d 82e2 aebd 40a2 19bd 5b90 993d
00000220: 0d39 91bd 2583 0a3e 9d2f 803b 3237 a2bd
00000230: 19bc d9bc fb9e e8bc 9d6a 1cbe 3ae9 b1bd
00000240: 6a9f e6bc 053e 853d 6c09 3bbe 9eda 06be
00000250: c39c a8bd 271e a23c 8dcc c63d 70ef 883b
00000260: 47f6 033d f63a 953c 0999 86bd f0f4 7fbc
00000270: 851e 61bd 1ffc 283d d89d 8c3d 9b56 993d
00000280: 432e 873d f68c b0bc 4c46 8b3d caab a23b
00000290: 6b83 cdbb afe1 203c 7f35 04be 3125 a6bd
000002a0: 6e02 8e3d 6657 60bb 96e2 c2bd a5c5 1c3d
000002b0: 14bb 8abd 6a35 173d c346 c33d c09d 133e
000002c0: 2fcd 9c3d 1ec6 b6bd 387b d5bc e1f9 0cbd
000002d0: fce5 86bd a69c 903d 31f4 bd3d a347 62bc
000002e0: 0c22 d73d 43e3 d33b 5410 9cbd e491 95bd
000002f0: a76e c2bd 0177 6e3c d5e4 983c 1bee e93c
00000300: 6d10 8cbd c304 ebbc ed76 bb3c 82ba e13b
00000310: 3717 1b3d f767 8b3d 4d0b 1ebc 3430 29bd
00000320: a221 3b3d 8b82 0fbd 46e7 cabd a77f 8b3b
00000330: f950 0cbe f9c8 e73c bdf4 03be d39a 473d
00000340: ae76 413d 807f a13d bf88 4bbd b51d ac3d
00000350: 9cb1 803d 3abc a53d 6d85 6ebd c45b 31bc
00000360: 8299 e33a 84f0 83bc f7b9 8a3d d930 e3bd
00000370: 203b 373d 8e66 bcbd 0087 c73d bd68 afbd
00000380: 12f0 4bbc 3450 d8bd 4297 ce3d 9396 0a3d
00000390: 5b28 633d 44e3 17be 42e3 833d 24e8 e03d
000003a0: 5370 213c 6011 89bd cb18 bbbd 42f9 ef3c
000003b0: 6d4d 623d 24d1 0cbd 3303 6bbd ffe3 3e3c
000003c0: 2048 853d 22f9 5cbd 4daf abbd 724d a8bc
000003d0: 0da9 803d d694 cd3d 4ac6 4ebd dd49 b9bd
000003e0: 6a3b aa3d 837c 0cbe c1ef 02be b1a5 c4bd
000003f0: e6a4 ea3c 2518 a63d 9aef ff3c e136 37bd
-0.090037614 -0.054651268 -0.05516545 -0.07117074 -0.08143558 -0.08167325 -0.054040447 0.047575533
0.059381094 0.02897724 0.05255874 -0.03249169 -0.14226308 -0.024122935 0.03421682 -0.05085302
0.044578984 -0.017888146 -0.08512564 0.097441725 -0.0037978454 -0.023928437 -0.10979001 -0.029041788
0.101731546 0.04690874 -0.075136185 -0.025210563 0.082774505 -0.107173406 -0.14071931 -0.046347152
0.0025499717 -0.082094766 0.056887083 -0.14787596 0.060685873 -0.09853622 0.049752507 0.06901364
-0.09406672 0.06745731 0.0670858 -0.011522232 0.0113859 0.08082037 -0.12563913 -0.05213789
-0.019637926 -0.011076508 -0.00884929 -0.057354394 0.011956239 -0.08886348 -0.04590307 -0.045665096
0.0052185 -0.049244076 -0.0037334845 0.044693064 -0.007561925 -0.07882724 -0.021839939 0.024129456
-0.11479383 0.05875793 0.07641156 -0.093905516 0.08342311 0.003282917 -0.012916227 -0.13009502
-0.12345766 -0.033962145 0.061350312 0.060974926 0.07316406 0.050026808 -0.09024445 0.020053888
0.033461828 0.09146602 -0.08849468 0.025379132 0.007035547 0.049421225 -0.060262967 -0.07573065
0.022354903 0.035665955 -0.11158856 -0.11368566 0.07254805 -0.06353476 -0.12497496 0.025475213
-0.02926501 0.0927882 0.1222743 -0.15509428 -0.047657955 0.009500441 0.066845775 0.09028918
0.025769105 -0.1061455 -0.01063742 0.027726943 0.0862996 0.036544867 0.082798064 0.065835044
0.06767014 -0.04697345 0.09653145 0.07692983 -0.07147816 -0.1252766 0.0023577274 -0.07067366
-0.15128814 0.044460215 0.004038156 -0.030375035 0.040635798 0.06416422 -0.062083602 -0.006823941
0.0125882365 -0.02028727 -0.031926878 -0.013020207 0.10302868 -0.08539297 -0.03750825 0.07498237
-0.0709096 0.1352659 0.003911926 -0.07920684 -0.02657895 -0.02839612 -0.15275045 -0.086870626
-0.028152186 0.0650597 -0.18265313 -0.13169333 -0.08233025 0.019789768 0.09706984 0.004178934
0.03221729 0.018216591 -0.06572158 -0.0156223625 -0.054960746 0.041256066 0.06866044 0.07487222
0.066006206 -0.02155159 0.068005174 0.0049643265 -0.0062717698 0.009819432 -0.12911032 -0.081125624
0.06934057 -0.003423178 -0.09515874 0.038274426 -0.067739636 0.036916174 0.09534981 0.14415646
0.07656323 -0.089245066 -0.026059732 -0.03441799 -0.06586835 0.07061128 0.092750914 -0.013811025
0.10504541 0.0064663007 -0.07620302 -0.07303217 -0.094937615 0.01455474 0.018663803 0.02855592
-0.068390705 -0.028688794 0.022883857 0.0068886885 0.037863936 0.06806939 -0.009646249 -0.041305736
0.04568637 -0.035036605 -0.09907393 0.0042571607 -0.13702764 0.028294073 -0.12886329 0.048731636
0.047232322 0.07885647 -0.049690958 0.08404104 0.06283876 0.08092542 -0.058232713 -0.010825101
0.0017364474 -0.016105898 0.06773751 -0.11093301 0.04473412 -0.09199248 0.09742546 -0.08564899
-0.012447374 -0.105621725 0.10087444 0.033835005 0.055458408 -0.14832789 0.0643983 0.10981777
0.00985344 -0.06692767 -0.09135588 0.02929366 0.05524962 -0.03437914 -0.057376098 0.011651038
0.065078974 -0.05394853 -0.08383045 -0.020544741 0.06282244 0.10038154 -0.050482072 -0.090472914
0.083121136 -0.13719372 -0.12786771 -0.09601916 0.028643083 0.08110074 0.03124218 -0.04473007

fc2.bias f4 [10]
00000000: b8ef 743c 7b0d 3abc 1b8f 9a3b 11c6 793c
00000010: fc17 acbb c6a8 43bd 92af 553c 3bb9 28bd
00000020: 129a 2abd 7b5e 30bd
0.0149497315 -0.011355753 0.0047167665 0.015244977 -0.0052518826 -0.047768377 0.0130423475 -0.041192275
-0.04165084 -0.043058854
